…
"></span><br><span class="line">    def forward(self, x):</span><br><span class="line">        # ModuleList can act as an iterable, or be indexed using ints</span><br><span class="line">        for i, l in enumerate(self.linears):</span><br><span class="line">            x = self.linears[i // 2](x) + l(x)</span><br><span class="line">        return x</span><br><span class="line">net = MyModule()</span><br><span class="line">print(net)</span><br><span class="line">输出:</span><br><span class="line">MyModule(</span><br><span class="line">  (linears): ModuleList(</span><br><span class="line">    (0): Linear(in_features=10, out_features=10, bias=True)</span><br><span class="line">    (1): Linear(in_features=10, out_features=10, bias=True)</span><br><span class="line">    (2): Linear(in_features=10, out_features=10, bias=True)</span><br><span class="line">    (3): Linear(in_features=10, out_features=10, bias=True)</span><br><span class="line">    (4): Linear(in_features=10, out_features=10, bias=True)</span><br><span class="line">    (5): Linear(in_features=10, out_features=10, bias=True)</span><br><span class="line">    (6): Linear(in_features=10, out_features=10, bias=True)</span><br><span class="line">    (7): Linear(in_features=10, out_features=10, bias=True)</span><br><span class="line">    (8): Linear(in_features=10, out_features=10, bias=True)</span><br><span class="line">    (9): Linear(in_features=10, out_features=10, bias=True)</span><br><span class="line">  )</span><br><span class="line">)</span><br></pre></td></tr></table></figure>
<p>与列表存储模型不同点比较</p>
<figure class="highlight plaintext"><table><tr><td class="code"><pre><span class="line">class MyModule1(nn.Module):</span><br><span class="line">    def __init__(self):</span><br><span class="line">        super(MyModule1, self)
…
